model/model_3/crop_demand_model.pth (torch, 13484 bytes, 5 tensors)

fc1.weight f4 [64, 8]
00000000: 3aa8 0cc0 8848 d3bf e31b 08c0 f6c4 cd3f
00000010: 5be4 0d40 5e3d e13f abc6 0540 d20f 0a40
00000020: 99b8 0f40 ae82 0cc0 d59f e93f 7465 0940
00000030: 7b00 0840 44a2 c03f 438b 00c0 6ede 0c40
00000040: f6ca b03f 9e34 0140 7cda 0640 b056 ffbf
00000050: 6ea0 ddbf 8140 fdbf 89af f03f 5f41 0040
00000060: 2df0 f1bf a116 0c40 9b23 05c0 5334 febf
00000070: 0e9a ecbf 02a2 e9bf a782 0340 70e5 05c0
00000080: a37a 0bc0 ec8f dfbf 9312 d9bf f7e7 0a40
00000090: ba69 d83f a010 0040 8551 0a40 9a42 ed3f
000000a0: f0e8 c63f 301f fbbf ff20 0240 b753 0140
000000b0: 0075 e73f 6ff7 0140 d581 fa3f f932 e33f
000000c0: 874b 933f 5965 0ac0 2471 04c0 5852 db3f
000000d0: 09fd f03f e5b5 0840 41b7 f9bf ac1a 0d40
000000e0: 7188 10c0 e78f f93f 3364 eebf 5968 e4bf
000000f0: bbfb 0bc0 3343 07c0 9270 0440 2e91 01c0
00000100: 3a74 07c0 39df d73f 2a98 06c0 b782 dfbf
00000110: 64f8 04c0 15f5 07c0 216b 0040 6f81 fbbf
00000120: ba0b 623f 62ad d4bf d277 0bc0 4db9 0a40
00000130: 61c5 cd3f edad 0440 4b67 09c0 44a3 0240
00000140: 1fcc 033f 3ce4 f0bf e9a0 00c0 b4b5 fd3f
00000150: 350f df3f 0df4 0140 f094 08c0 c4e5 db3f
00000160: 8b49 b13f 83c7 f33f e444 eb3f d8d7 0bc0
00000170: b7fc dabf 03b5 d8bf 5793 0340 e546 e93f
00000180: 877e a93f c12b 0bc0 9c98 fe3f c7a9 e53f
00000190: ebae f33f 4a91 fd3f c60c ea3f fc54 fa3f
000001a0: 5d32 9a3f dbd8 f3bf 621a 0640 db37 0140
000001b0: cbd9 0940 eb3b d43f 3bd2 ee3f c3f1 0b40
000001c0: d944 cf3f d0f0 f23f 83d1 f43f 8bb8 04c0
000001d0: c921 fabf 87e5 f4bf f978 0240 edff 0140
000001e0: 8f95 d23f eba3 0b40 6b4d edbf 38e9 bebf
000001f0: 47b6 0bc0 d35a f5bf 4b79 f4bf 9db6 cbbf
00000200: ec7d 08c0 ef54 e53f c466 f8bf 99e9 0bc0
00000210: 2799 04c0 065b e8bf 30c4 e73f cf5c 8abf
00000220: b1fb b13f a657 09c0 1d33 febf 05c8 f43f
00000230: 582c f23f 151d e33f ddf6 eebf 1fad eb3f
00000240: 623b fc3f 18c1 09c0 de2f f73f 6e57 f93f
00000250: c59e e63f f352 df3f b0a1 e9bf cb70 0040
00000260: 2a04 04c0 3388 e7bf fc75 07c0 dcea 0d40
00000270: 5a9e de3f 39dd 0340 7735 0240 ab7c 0940
00000280: b0a1 c5be dd8b fbbf e356 f4bf 02e7 0740
00000290: 82d0 c33f 5473 0140 10cb f3bf c6e1 d63f
000002a0: 81d3 8a3f d46f efbf 4641 0140 d845 fd3f
000002b0: dc12 de3f 4e71 0440 56a9 0540 f467 d93f
000002c0: 4d71 e6bf 2620 df3f 0c12 08c0 5bfc 0dc0
000002d0: a101 dbbf d309 01c0 1788 0140 4c76 ffbf
000002e0: bcc4 993f 276d f4bf f175 05c0 4f4d ee3f
000002f0: fecf f83f 8fde f73f 9313 dabf 370e d73f
00000300: 57a0 b53f 3ea5 0b40 2a9c 1040 144a f3bf
00000310: 4369 f9bf 3639 e6bf da48 f73f e031 a33f
00000320: af8f 9e3f 2187 f4bf 5441 e6bf 4553 fc3f
00000330: 06b1 f93f c99c 0f40 cc49 f3bf 199b e13f
00000340: 4008 ca3f b344 debf 81da e13f 0c17 ec3f
00000350: 718e fa3f 39b5 ef3f 8689 f83f f554 0640
00000360: e0cc 4f3f d7c7 dbbf 6b53 02c0 7bfe 0c40
00000370: bb9e 0d40 6e06 ec3f 1d87 febf e575 c73f
00000380: e61c e03f 8221 f43f 7514 0c40 f8b6 0dc0
00000390: ede9 e8bf d7c7 fbbf ef34 0840 2ee9 e73f
000003a0: 0310 f4bf d2a0 02c0 96dc 08c0 599b e53f
000003b0: c9a0 ff3f ef12 0040 c8a3 1140 120c ef3f
000003c0: c86c 963f b6ef 0c40 5f11 0940 8ca3 fdbf
000003d0: 85d5 d6bf d8f7 01c0 255b dc3f 95e1 803f
000003e0: 8437 b63f dddc c63f 8ba2 d3bf ec95 09c0
000003f0: cfde fdbf dffd 01c0 e53e 0bc0 8777 03c0
-2.1977677 -1.650651 -2.126702 1.6075733 2.2170627 1.7596853 2.0902507 2.1572156
2.245642 -2.195476 1.8251902 2.1468172 2.1250293 1.504952 -2.0084999 2.201076
1.3811939 2.0188365 2.1070852 -1.994833 -1.7314584 -1.978531 1.8803569 2.00399
-1.8901421 2.1888812 -2.0802982 -1.9859718 -1.8484514 -1.8252566 2.0548494 -2.0921288
-2.1793602 -1.7465796 -1.6958793 2.170408 1.6907265 2.0010147 2.1612256 1.853595
1.5539837 -1.9618893 2.033264 2.0207345 1.808258 2.0307271 1.9570872 1.7749931
1.1507424 -2.1624358 -2.0694056 1.7134504 1.882722 2.136102 -1.950905 2.204753
-2.2583277 1.949704 -1.8624328 -1.7844344 -2.1872394 -2.1134765 2.0693707 -2.024486
-2.116469 1.6864997 -2.1030374 -1.7461766 -2.0776606 -2.1243336 2.0065386 -1.9648875
0.88299143 -1.6615412 -2.1791883 2.1675599 1.607586 2.0731156 -2.1469295 2.041215
0.5148334 -1.8819652 -2.0098212 1.9821076 1.7426516 2.0305207 -2.1340904 1.7179494
1.3850569 1.9045261 1.8380399 -2.185049 -1.7108372 -1.693024 2.055868 1.822476
1.3241738 -2.1745455 1.9890323 1.7942437 1.9037756 1.9809964 1.8285148 1.9557185
1.204662 -1.9050554 2.0953603 2.0190341 2.153918 1.6580786 1.8657907 2.186631
1.6192886 1.897974 1.9126438 -2.0737636 -1.954156 -1.9132546 2.0386336 2.0312455
1.6451892 2.1818798 -1.8539251 -1.4914923 -2.1830003 -1.9168342 -1.9099516 -1.5915104
-2.1326857 1.7916545 -1.9406362 -2.1861327 -2.0718477 -1.8152778 1.8106747 -1.0809573
1.3904935 -2.1459746 -1.9859349 1.9123541 1.8919783 1.774325 -1.8669087 1.8412207
1.9705622 -2.1524105 1.9311483 1.9479806 1.8017203 1.7447189 -1.8252468 2.0068843
-2.0627542 -1.808844 -2.1165762 2.2174597 1.7392075 2.0603774 2.0345132 2.1482341
-0.3859992 -1.9652058 -1.9089016 2.1234746 1.5298007 2.022664 -1.9046345 1.678765
1.0845796 -1.8706002 2.019609 1.978694 1.7349505 2.0694156 2.0884604 1.6984849
-1.8003327 1.7431686 -2.1261015 -2.2185276 -1.7109872 -2.0162246 2.0239313 -1.9957976
1.2013164 -1.9095811 -2.0853236 1.8617343 1.9438474 1.9364794 -1.7037224 1.6801213
1.4189557 2.1819606 2.2595315 -1.9006982 -1.9485248 -1.7986209 1.9319108 1.2749596
1.2387599 -1.9103738 -1.7988687 1.9712912 1.9507148 2.2439444 -1.9006896 1.7625457
1.5783768 -1.7364715 1.7644807 1.8444533 1.957472 1.872718 1.9416969 2.0989354
0.8117199 -1.7170361 -2.0363414 2.2030323 2.2128131 1.8439462 -1.9884983 1.5582854
1.7508819 1.9072726 2.1887486 -2.2142925 -1.8196388 -1.9670361 2.1282308 1.8118036
-1.9067386 -2.0410657 -2.1384635 1.7938033 1.9970943 2.0011556 2.2756214 1.8675559
1.1751947 2.2021308 2.1416852 -1.9815536 -1.6783911 -2.0307522 1.7215315 1.0068842
1.4235692 1.5536152 -1.6533979 -2.1497755 -1.9833621 -2.03112 -2.1757138 -2.0541704

fc1.bias f4 [64]
00000000: 4fbe 0140 e8c1 f93f f583 e23f e9d8 0440
00000010: a68c e23f c8e8 0d40 3b59 c63f 7d4b 0640
00000020: cf6b e53f 9d51 0e40 111c c33f 0bcb e83f
00000030: a13b 0c40 9490 0240 983f e73f 2479 f13f
00000040: b7a3 cd3f 9edb f73f b2f2 ee3f 0759 0a40
00000050: cdbe f63f 811d 0540 ed1c d63f bb3a e73f
00000060: 81a8 e83f 3faf c93f c5a9 0a40 9ad1 d63f
00000070: 22b1 f83f ef01 0740 6e26 cc3f f9a2 dc3f
00000080: a353 0b40 6867 f83f 1e48 0740 9b8c d03f
00000090: d53b f43f 0bad c43f 0293 0440 c8f7 e13f
000000a0: b7ce ed3f 0e0e cb3f 55e9 e73f c8d9 da3f
000000b0: 8200 fb3f 3198 f53f bd36 df3f 782c 0c40
000000c0: d0c3 87be 386a 0940 30e3 0740 7076 fd3f
000000d0: 3439 e33f 4272 f93f 9b9b c83f 7d95 fb3f
000000e0: 340c 0740 ee97 d53f d9d4 e03f 6519 ef3f
000000f0: 5b75 b9be ad41 e13f f5a1 0a40 3c5e 0e40
2.0272405 1.95123 1.769652 2.0757391 1.7699172 2.2173328 1.5495981 2.0983574
1.7923526 2.2237313 1.524294 1.8186964 2.1911395 2.0400743 1.8066282 1.8865094
1.6065587 1.9363897 1.8667815 2.1616838 1.9276978 2.0799258 1.6727577 1.8064798
1.8176423 1.5756606 2.166612 1.6782715 1.9429057 2.109493 1.5949228 1.7237235
2.1769798 1.9406557 2.1137767 1.6292909 1.9080759 1.5365309 2.0714726 1.7653742
1.8578709 1.5863664 1.8118082 1.7097712 1.960953 1.918707 1.743858 2.1902142
-0.2651658 2.147108 2.1232414 1.9801769 1.7751832 1.9487994 1.5672487 1.9654995
2.1101198 1.668699 1.7564956 1.8679625 -0.36222348 1.7598168 2.166135 2.2245016

fc2.weight f4 [32, 64]
00000000: b89b 4c3d 64bb 933c 5b07 2f3d 1ccf c1bd
00000010: 0cab 793d d0b9 85bd 246b 453d 9a1a c2bd
00000020: 67ed b13b 7bf3 44bd 2696 b03d b993 7b3d
00000030: 20c8 e3bd c555 edbd 7337 f2bd 0dd2 8bbd
00000040: 3429 b2bd 2f26 4ebd 6797 9ebd 00ea fa39
00000050: f40f 5f3b 930b 75bd a7e0 a73c ab93 1f3c
00000060: f955 873d 3868 cc3c a3db 00be e0d2 52bc
00000070: ea99 d63d 04a2 743d da4d a13d 41b7 ab3d
00000080: c238 dcbd 465a 883d 1622 2a3d c18a b13c
00000090: c0cb 5b3d 81c3 933d db1c 8dbd e780 e9bd
000000a0: 2aa1 a9bd d0ff 943d 9266 19be 9fc7 59bd
000000b0: 9014 b43d f40f da3d 68cd c7bd 8ab0 483d
000000c0: 9c1f 3c3d 32ba 1e3b 2da8 0dbd f42a a33c
000000d0: db63 9cbd ef6c ffbd 9015 7a3c 9e93 a33d
000000e0: 4467 bbbd fbf2 d93c 864d 8c3d 0ebf 9fbd
000000f0: cd48 83bd badd 7cbc 41ff dc3c 32bb 903d
00000100: f53a 913d e497 65bd 1c6b 5ebd fc06 c8bd
00000110: 259c 65bd 5d0e eeb9 1dc0 dbbc 836f ac3d
00000120: b523 edbd 946d 30bd 6d8b e53c 1d10 bbbc
00000130: b20e 88bd 7529 7ebd eb67 9c3d b7ac a03d
00000140: 06a8 b13d c552 4b3d 898a 94bb cb92 5f3d
00000150: 2d39 733d 4040 91bd a2a7 d2bd f6cb 843d
00000160: 4566 c3bd 04a8 7d3d b55f dcbd ff17 563d
00000170: b488 02bd 4997 08be d918 65bc b658 bcbd
00000180: 2bc4 8b39 0962 ddbd 9f45 733d 604d dc3b
00000190: 85c9 f6bb 31af d93c 789a 80bd b6b0 133d
000001a0: a36f 3e3d c712 f1bc 073b f4bd 457b ca3d
000001b0: b73d a0bd fc37 6fbd 8ce6 36bd ebe4 dcbc
000001c0: ac74 5f3d 4dfa 1dbc e19f ab3c a605 6bbd
000001d0: 9a6d 36bd 5ed6 683d afb8 9d3c 92f0 b1bd
000001e0: b27d dfbd 7618 6e3d 3761 50bd 0d73 ab3d
000001f0: 2430 87bd 4f06 e23c 6c6e 6dbb ad2a fbbd
00000200: 0279 f43f 67df d43f 1025 e13f bef8 e33f
00000210: 9b1b e93f 3b43 ea3f a958 ec3f 3c4c d73f
00000220: 16c4 f53f dad7 e03f 3aca ef3f ac6a ea3f
00000230: 5571 d93f fdb4 e83f 2253 e73f 51b6 e13f
00000240: 2bb1 f93f 9f5c fa3f 3d36 ea3f c1bf f03f
00000250: 42a9 dc3f e71d e03f 444b e53f 39d4 ea3f
00000260: 108f dd3f 8fce e73f 30d9 e43f f9d9 f13f
00000270: a02c dc3f d007 e03f f323 0040 3ad3 e53f
00000280: 9e93 df3f ddce d63f 26d8 e63f 1af3 de3f
00000290: 03e3 ed3f 97de e83f 7fd8 e83f 1995 e23f
000002a0: 06e9 e73f b28b fd3f 9afc dc3f b9c9 f63f
000002b0: 8795 f43f b149 f13f 0464 df3f 8bc4 f03f
000002c0: a85d e53d 9ff5 f63f 9d55 f43f 4373 eb3f
000002d0: fa28 de3f 53e8 e93f e108 f63f f98b e43f
000002e0: ba8d ef3f e54f e63f 1edb da3f b94b ed3f
000002f0: 54da 963b 1036 ea3f ded9 df3f 541a e53f
00000300: 392a e63f 90a6 f93f 9ab2 ec3f 5739 ed3f
00000310: a536 ec3f ab7d fa3f 0193 e63f 10f8 f33f
00000320: 9251 f83f 4574 e23f 756f f83f 49a9 f93f
00000330: d0f5 f43f b3d7 f83f 4531 ea3f aa55 e23f
00000340: 10d2 0040 90a9 e43f fe0f fe3f 3dbc e13f
00000350: 7a95 0040 627d f53f 064f f13f aa31 f73f
00000360: 21e3 ec3f 52d1 f83f 476f e03f 4301 f03f
00000370: 031b ef3f 7514 fa3f f386 f83f d497 e43f
00000380: 5e22 f43f a8b7 ec3f 786f e23f efd0 e43f
00000390: 59ea f03f c3ba e03f c8e3 f23f 9645 0240
000003a0: 3ef6 eb3f c576 ea3f a91d f93f c5f1 fd3f
000003b0: 7a5a ef3f 270b fc3f 02bd ee3f 3385 f83f
000003c0: aab4 5f3c c066 f63f c21f eb3f a15c e53f
000003d0: 78a1 ed3f 379e e83f 5ba5 eb3f 48c7 f93f
000003e0: 80cf f03f daf7 0140 38b8 fd3f f81c 0040
000003f0: e63c d8bb 2704 e33f 9c99 f53f 4266 e43f
0.049953192 0.01803369 0.042731624 -0.09463331 0.06095414 -0.065295815 0.04819788 -0.0947773
0.005429912 -0.048083764 0.086223885 0.061420176 -0.11122155 -0.11588625 -0.11826982 -0.068271734
-0.08699265 -0.050329383 -0.077437215 0.0004785806 0.0034036608 -0.05982549 0.020492865 0.009739797
0.06608195 0.02495204 -0.12583785 -0.012867659 0.104785755 0.059724823 0.07876177 0.08384562
-0.10753013 0.06657843 0.041536413 0.021672608 0.053661108 0.07215024 -0.06890269 -0.11401539
-0.08282693 0.07275355 -0.14980534 -0.05316889 0.087929845 0.10647574 -0.09755975 0.048996486
0.045928583 0.0024219868 -0.034584213 0.019917943 -0.076362334 -0.12471949 0.01526393 0.0798714
-0.09150556 0.02660512 0.06850724 -0.07800113 -0.0641037 -0.015433723 0.026977183 0.07066955
0.07091323 -0.056053057 -0.054301366 -0.09766957 -0.056057114 -0.000454056 -0.026825005 0.08419707
-0.11579076 -0.04307325 0.028020585 -0.022834832 -0.06643428 -0.062051255 0.07637008 0.07845443
0.08674626 0.049639482 -0.0045331162 0.054583352 0.0593807 -0.07092333 -0.1028588 0.06484215
-0.09540991 0.06192781 -0.10760442 0.05226898 -0.03186865 -0.1333896 -0.013982975 -0.09196608
0.00026658303 -0.10809714 0.059392568 0.006723091 -0.007531347 0.026572796 -0.062794626 0.036057197
0.046493184 -0.029427899 -0.11925321 0.09886793 -0.07824271 -0.058403 -0.04465346 -0.026964625
0.054554626 -0.009642196 0.02095026 -0.057378434 -0.044538118 0.05684506 0.019253103 -0.08688463
-0.10912646 0.058128797 -0.05087396 0.083715536 -0.06600979 0.027590899 -0.0036229147 -0.12263999
1.9099429 1.6630677 1.7589436 1.7810285 1.821155 1.8301767 1.8464557 1.682014
1.9200466 1.7565873 1.873359 1.8313804 1.6987711 1.8180233 1.8072245 1.7633764
1.9507192 1.9559516 1.8297802 1.8808519 1.7239153 1.7509125 1.7913594 1.8346015
1.7309284 1.8109912 1.787878 1.8894645 1.7201118 1.7502384 2.0021942 1.7955086
1.7466924 1.678188 1.8034713 1.7417939 1.8584903 1.8192929 1.8191069 1.7701751
1.8117988 1.9808257 1.7264588 1.9280311 1.9108132 1.8850614 1.7452397 1.880998
0.11199504 1.9293708 1.9088627 1.839455 1.7356255 1.8274025 1.922146 1.7855216
1.8715127 1.7993132 1.7098119 1.8538734 0.0046036635 1.8297749 1.7488363 1.789866
1.7981635 1.9503956 1.8492005 1.8533124 1.8454176 1.9569601 1.8013612 1.9060078
1.9399893 1.7691733 1.9409014 1.9504787 1.9137516 1.9440826 1.8296286 1.7682393
2.0128212 1.7864246 1.984863 1.7635571 2.0091233 1.9178889 1.8852241 1.9312031
1.8506814 1.943888 1.7533959 1.8750385 1.8680118 1.9537493 1.9416183 1.7858834
1.9072988 1.8493547 1.7690268 1.7876261 1.8821517 1.7556995 1.8975763 2.0354972
1.8434522 1.8317496 1.9462177 1.9839407 1.8699486 1.9690903 1.8651431 1.9415649
0.0136539135 1.9250107 1.8369067 1.7918893 1.8564901 1.8173283 1.8409837 1.9513941
1.8813324 2.0307527 1.9821844 2.001768 -0.0065990565 1.7735642 1.9187503 1.7843707

fc2.bias f4 [32]
00000000: f1e4 e5bd 849a 8bbd 6748 bf3f 45b1 c23f
00000010: 9a2d 72bb 310f c13f ca83 7a3d 48d4 edbd
00000020: 53f2 b73b baab 6b3d 0b6a 1d3d 6e68 b63f
00000030: 47b9 583b d057 443c 9ae5 62bb 50cc d03d
00000040: 5381 c33f d917 b93f 8749 8fbd 4eb2 aa3f
00000050: 3c6a 32bd 6a61 fbbd 0f06 af3f 5a2a 0ebb
00000060: e4d0 b63f 6d5d b03f 536f c93f 9489 b43f
00000070: 08ea 5ebd 80ad febd 888d 5ebc 41fa a8ba
-0.11225308 -0.06816581 1.494397 1.5210348 -0.003695345 1.5082761 0.06116084 -0.11612755
0.005613604 0.057536818 0.03843121 1.425062 0.0033069418 0.011983827 -0.0034621716 0.101952195
1.5273842 1.4460403 -0.06996446 1.3335664 -0.043558344 -0.1227444 1.3673724 -0.0021692724
1.4282498 1.3778511 1.5737098 1.4104486 -0.05442241 -0.12435436 -0.013583548 -0.0012891964

fc3.weight f4 [1, 32]
00000000: c58c 03be 6291 c7bc 8b13 0540 eacf f93f
00000010: 9c48 3cbd 366f f43f c33d 18bd bfae 92bd
00000020: 0e79 07be 47a6 1bbd 6c80 20be 1ffc f83f
00000030: 50f0 82bd 0358 06be 0b8c 47bc 79c4 12bd
00000040: f273 f93f cb20 0440 dc78 c3bd 9cc8 0440
00000050: 446a b73d 978d 54bd ea76 cd3f fb5e 20be
00000060: 9198 0140 8572 0540 0d48 0240 e8f7 fe3f
00000070: 104b 01bd 99c1 1abe 0c44 eabd d69d 55bd
-0.12846668 -0.024361316 2.0793178 1.9516575 -0.045967683 1.9096439 -0.037168276 -0.071622364
-0.13229772 -0.03800037 -0.15673989 1.9451941 -0.06393492 -0.13119511 -0.012179385 -0.035831902
1.9488509 2.0645015 -0.095445365 2.0747442 0.089558154 -0.051892843 1.6051915 -0.15661232
2.024937 2.0851147 2.0356476 1.9919405 -0.031565726 -0.15112914 -0.1143876 -0.052152477
